…
80/"},"id":"WX91rnk_zhma","executionInfo":{"elapsed":221,"status":"ok","timestamp":1637277266454,"user":{"displayName":"Arif Waghbakriwala","photoUrl":"https://lh3.googleusercontent.com/a/default-user=s64","userId":"13401450137835164561"},"user_tz":300},"outputId":"89207304-0499-47b8-a77b-2786d38142a3"},"source":["processor = torch.device(\"cuda\" if torch.cuda.is_available() else \"cpu\")\n","print(processor)\n","\n","visual_geom_grp.to(processor)\n","print(visual_geom_grp)\n","\n"],"execution_count":null,"outputs":[{"name":"stdout","output_type":"stream","text":["cpu\n","Sequential(\n","  (0): Conv2d(3, 64, kernel_size=(3, 3), stride=(1, 1), padding=(1, 1))\n","  (1): ReLU(inplace=True)\n","  (2): Conv2d(64, 64, kernel_size=(3, 3), stride=(1, 1), padding=(1, 1))\n","  (3): ReLU(inplace=True)\n","  (4): MaxPool2d(kernel_size=2, stride=2, padding=0, dilation=1, ceil_mode=False)\n","  (5): Conv2d(64, 128, kernel_size=(3, 3), stride=(1, 1), padding=(1, 1))\n","  (6): ReLU(inplace=True)\n","  (7): Conv2d(128, 128, kernel_size=(3, 3), stride=(1, 1), padding=(1, 1))\n","  (8): ReLU(inplace=True)\n","  (9): MaxPool2d(kernel_size=2, stride=2, padding=0, dilation=1, ceil_mode=False)\n","  (10): Conv2d(128, 256, kernel_size=(3, 3), stride=(1, 1), padding=(1, 1))\n","  (11): ReLU(inplace=True)\n","  (12): Conv2d(256, 256, kernel_size=(3, 3), stride=(1, 1), padding=(1, 1))\n","  (13): ReLU(inplace=True)\n","  (14): Conv2d(256, 256, kernel_size=(3, 3), stride=(1, 1), padding=(1, 1))\n","  (15): ReLU(inplace=True)\n","  (16): Conv2d(256, 256, kernel_size=(3, 3), stride=(1, 1), padding=(1, 1))\n","  (17): ReLU(inplace=True)\n","  (18): MaxPool2d(kernel_size=2, stride=2, padding=0, dilation=1, ceil_mode=False)\n","  (19): Conv2d(256, 512, kernel_size=(3, 3), stride=(1, 1), padding=(1, 1))\n","  (20): ReLU(inplace=True)\n","  (21): Conv2d(512, 512, kernel_size=(3, 3), stride=(1, 1), padding=(1, 1))\n","  (22): ReLU(inplace=True)\n","  (23): Conv2d(512, 512, kernel_size=(3, 3), stride=(1, 1), padding=(1, 1))\n","  (24): ReLU(inplace=True)\n","  (25): Conv2d(512, 512, kernel_size=(3, 3), stride=(1, 1), padding=(1, 1))\n","  (26): ReLU(inplace=True)\n","  (27): MaxPool2d(kernel_size=2, stride=2, padding=0, dilation=1, ceil_mode=False)\n","  (28): Conv2d(512, 512, kernel_size=(3, 3), stride=(1, 1), padding=(1, 1))\n","  (29): ReLU(inplace=True)\n","  (30): Conv2d(512, 512, kernel_size=(3, 3), stride=(1, 1), padding=(1, 1))\n","  (31): ReLU(inplace=True)\n","  (32): Conv2d(512, 512, kernel_size=(3, 3), stride=(1, 1), padding=(1, 1))\n","  (33): ReLU(inplace=True)\n","  (34): Conv2d(512, 512, kernel_size=(3, 3), stride=(1, 1), padding=(1, 1))\n","  (35): ReLU(inplace=True)\n","  (36): MaxPool2d(kernel_size=2, stride=2, padding=0, dilation=1, ceil_mode=False)\n",")\n"]}]},{"cell_type":"markdown","metadata":{"id":"WxM2YyaVzhmd"},"source":["## Preprocess image"]},{"cell_type":"code","metadata":{"id":"a7szQ02nzhme"},"source":["from PIL import Image\n","from torchvision import tra
…
